odel: "sequential"
_________________________________________________________________
 Layer (type)                Output Shape              Param #
=================================================================
 embedding (Embedding)       (None, 150, 128)          2560000

 spatial_dropout1d (SpatialD  (None, 150, 128)         0
 ropout1D)

 bidirectional (Bidirectiona  (None, 150, 128)         98816
 l)

 global_max_pooling1d (Globa  (None, 128)              0
 lMaxPooling1D)

 dense (Dense)               (None, 64)                8256

 dropout (Dropout)           (None, 64)                0

 dense_1 (Dense)             (None, 6)                 390

=================================================================
Total params: 2,667,462
Trainable params: 2,667,462
Non-trainable params: 0
_________________________________________________________________
None


1122/1122 [==============================] - 353s 312ms/step - loss: 0.0847 - accuracy: 0.8856 - val_loss: 0.0500 - val_accuracy: 0.9940
Epoch 2/4
1122/1122 [==============================] - ETA: 0s - loss: 0.0501 - accuracy: 0.9878
…
